{"format": "graph-model", "generatedBy": "1.14.0", "convertedBy": "TensorFlow.js Converter v1.2.3", "modelTopology": {"node": [{"name": "data/Input", "op": "Placeholder", "attr": {"shape": {"shape": {"dim": [{"size": "-1"}, {"size": "64"}]}}, "dtype": {"type": "DT_FLOAT"}}}, {"name": "ArgMax/dimension", "op": "Const", "attr": {"value": {"tensor": {"dtype": "DT_INT32", "tensorShape": {}}}, "dtype": {"type": "DT_INT32"}}}, {"name": "Variable_7", "op": "Const", "attr": {"value": {"tensor": {"dtype": "DT_FLOAT", "tensorShape": {"dim": [{"size": "6"}]}}}, "dtype": {"type": "DT_FLOAT"}}}, {"name": "Variable_3", "op": "Const", "attr": {"value": {"tensor": {"dtype": "DT_FLOAT", "tensorShape": {"dim": [{"size": "1248"}, {"size": "6"}]}}}, "dtype": {"type": "DT_FLOAT"}}}, {"name": "dropout/truediv", "op": "Const", "attr": {"value": {"tensor": {"dtype": "DT_FLOAT", "tensorShape": {}}}, "dtype": {"type": "DT_FLOAT"}}}, {"name": "dropout/rate", "op": "Const", "attr": {"value": {"tensor": {"dtype": "DT_FLOAT", "tensorShape": {}}}, "dtype": {"type": "DT_FLOAT"}}}, {"name": "Variable_6", "op": "Const", "attr": {"value": {"tensor": {"dtype": "DT_FLOAT", "tensorShape": {"dim": [{"size": "1248"}]}}}, "dtype": {"type": "DT_FLOAT"}}}, {"name": "Variable_2", "op": "Const", "attr": {"value": {"tensor": {"dtype": "DT_FLOAT", "tensorShape": {"dim": [{"size": "786"}, {"size": "1248"}]}}}, "dtype": {"type": "DT_FLOAT"}}}, {"name": "Variable_5", "op": "Const", "attr": {"value": {"tensor": {"dtype": "DT_FLOAT", "tensorShape": {"dim": [{"size": "786"}]}}}, "dtype": {"type": "DT_FLOAT"}}}, {"name": "Variable_1", "op": "Const", "attr": {"value": {"tensor": {"dtype": "DT_FLOAT", "tensorShape": {"dim": [{"size": "528"}, {"size": "786"}]}}}, "dtype": {"type": "DT_FLOAT"}}}, {"name": "Variable_4", "op": "Const", "attr": {"value": {"tensor": {"dtype": "DT_FLOAT", "tensorShape": {"dim": [{"size": "528"}]}}}, "dtype": {"type": "DT_FLOAT"}}}, {"name": "Variable", "op": "Const", "attr": {"value": {"tensor": {"dtype": "DT_FLOAT", "tensorShape": {"dim": [{"size": "64"}, {"size": "528"}]}}}, "dtype": {"type": "DT_FLOAT"}}}, {"name": "MatMul", "op": "MatMul", "input": ["data/Input", "Variable"], "attr": {"transpose_b": {"b": false}, "T": {"type": "DT_FLOAT"}, "transpose_a": {"b": false}}}, {"name": "Add", "op": "Add", "input": ["MatMul", "Variable_4"], "attr": {"T": {"type": "DT_FLOAT"}}}, {"name": "Relu", "op": "Relu", "input": ["Add"], "attr": {"T": {"type": "DT_FLOAT"}}}, {"name": "MatMul_1", "op": "MatMul", "input": ["Relu", "Variable_1"], "attr": {"transpose_b": {"b": false}, "T": {"type": "DT_FLOAT"}, "transpose_a": {"b": false}}}, {"name": "Add_1", "op": "Add", "input": ["MatMul_1", "Variable_5"], "attr": {"T": {"type": "DT_FLOAT"}}}, {"name": "Relu_1", "op": "Relu", "input": ["Add_1"], "attr": {"T": {"type": "DT_FLOAT"}}}, {"name": "MatMul_2", "op": "MatMul", "input": ["Relu_1", "Variable_2"], "attr": {"transpose_b": {"b": false}, "T": {"type": "DT_FLOAT"}, "transpose_a": {"b": false}}}, {"name": "Add_2", "op": "Add", "input": ["MatMul_2", "Variable_6"], "attr": {"T": {"type": "DT_FLOAT"}}}, {"name": "Relu_2", "op": "Relu", "input": ["Add_2"], "attr": {"T": {"type": "DT_FLOAT"}}}, {"name": "dropout/Shape", "op": "Shape", "input": ["Relu_2"], "attr": {"T": {"type": "DT_FLOAT"}, "out_type": {"type": "DT_INT32"}}}, {"name": "dropout/random_uniform/RandomUniform", "op": "RandomUniform", "input": ["dropout/Shape"], "attr": {"seed": {"i": "0"}, "T": {"type": "DT_INT32"}, "dtype": {"type": "DT_FLOAT"}, "seed2": {"i": "0"}}}, {"name": "dropout/GreaterEqual", "op": "GreaterEqual", "input": ["dropout/random_uniform/RandomUniform", "dropout/rate"], "attr": {"T": {"type": "DT_FLOAT"}}}, {"name": "dropout/Cast", "op": "Cast", "input": ["dropout/GreaterEqual"], "attr": {"SrcT": {"type": "DT_BOOL"}, "Truncate": {"b": false}, "DstT": {"type": "DT_FLOAT"}}}, {"name": "dropout/mul", "op": "Mul", "input": ["dropout/Cast", "dropout/truediv"], "attr": {"_grappler:ArithmeticOptimizer:MinimizeBroadcasts": {"b": true}, "T": {"type": "DT_FLOAT"}}}, {"name": "dropout/mul_1", "op": "Mul", "input": ["Relu_2", "dropout/mul"], "attr": {"_grappler:ArithmeticOptimizer:MinimizeBroadcasts": {"b": true}, "T": {"type": "DT_FLOAT"}}}, {"name": "MatMul_3", "op": "MatMul", "input": ["dropout/mul_1", "Variable_3"], "attr": {"transpose_b": {"b": false}, "T": {"type": "DT_FLOAT"}, "transpose_a": {"b": false}}}, {"name": "output", "op": "Add", "input": ["MatMul_3", "Variable_7"], "attr": {"T": {"type": "DT_FLOAT"}}}, {"name": "ArgMax", "op": "ArgMax", "input": ["output", "ArgMax/dimension"], "attr": {"Tidx": {"type": "DT_INT32"}, "T": {"type": "DT_FLOAT"}, "output_type": {"type": "DT_INT64"}}}], "library": {}, "versions": {"producer": 38}}, "weightsManifest": [{"paths": ["group1-shard1of2.bin", "group1-shard2of2.bin"], "weights": [{"name": "ArgMax/dimension", "shape": [], "dtype": "int32"}, {"name": "Variable_7", "shape": [6], "dtype": "float32"}, {"name": "Variable_3", "shape": [1248, 6], "dtype": "float32"}, {"name": "dropout/truediv", "shape": [], "dtype": "float32"}, {"name": "dropout/rate", "shape": [], "dtype": "float32"}, {"name": "Variable_6", "shape": [1248], "dtype": "float32"}, {"name": "Variable_2", "shape": [786, 1248], "dtype": "float32"}, {"name": "Variable_5", "shape": [786], "dtype": "float32"}, {"name": "Variable_1", "shape": [528, 786], "dtype": "float32"}, {"name": "Variable_4", "shape": [528], "dtype": "float32"}, {"name": "Variable", "shape": [64, 528], "dtype": "float32"}]}]}